…
C:\Program Files\Python36\lib\site-packages\matplotlib\tight_layout.py:207: UserWarning: tight_layout : falling back to Agg renderer
  warnings.warn("tight_layout : falling back to Agg renderer")
06/29/2018 07:31:00 AM __main__     INFO
06/29/2018 07:31:00 AM __main__     INFO     Try a deep model with time-split data ...
06/29/2018 07:31:00 AM __main__     INFO     Constructing model - deep
06/29/2018 07:31:01 AM __main__     INFO     Constructed model:
_________________________________________________________________
Layer (type)                 Output Shape              Param #
=================================================================
dense_2 (Dense)              (None, 128)               384128
_________________________________________________________________
batch_normalization_1 (Batch (None, 128)               512
_________________________________________________________________
activation_1 (Activation)    (None, 128)               0
_________________________________________________________________
dropout_1 (Dropout)          (None, 128)               0
_________________________________________________________________
dense_3 (Dense)              (None, 128)               16512
_________________________________________________________________
batch_normalization_2 (Batch (None, 128)               512
_________________________________________________________________
activation_2 (Activation)    (None, 128)               0
_________________________________________________________________
dropout_2 (Dropout)          (None, 128)               0
_________________________________________________________________
dense_4 (Dense)              (None, 64)                8256
_________________________________________________________________
batch_normalization_3 (Batch (None, 64)                256
_________________________________________________________________
activation_3 (Activation)    (None, 64)                0
_________________________________________________________________
dropout_3 (Dropout)          (None, 64)                0
_________________________________________________________________
dense_5 (Dense)              (None, 64)                4160
_________________________________________________________________
batch_normalization_4 (Batch (None, 64)                256
_________________________________________________________________
activation_4 (Activation)    (None, 64)                0
_________________________________________________________________
dropout_4 (Dropout)          (None, 64)                0
_________________________________________________________________
dense_6 (Dense)              (None, 32)                2080
_________________________________________________________________
batch_normalization_5 (Batch (None, 32)                128
_________________________________________________________________
activation_5 (Activation)    (None, 32)                0
_________________________________________________________________
dropout_5 (Dropout)          (None, 32)                0
_________________________________________________________________
dense_7 (Dense)              (None, 32)                1056
_________________________________________________________________
batch_normalization_6 (Batch (None, 32)                128
_________________________________________________________________
activation_6 (Activation)    (None, 32)                0
_________________________________________________________________
dropout_6 (Dropout)          (None, 32)                0
_________________________________________________________________
dense_8 (Dense)              (None, 1)                 33
=================================================================
Total params: 418,017
Trainable params: 417,121
Non-trainable params: 896
_________________________________________________________________
06/29/2018 07:31:01 AM __main__     INFO     Start training model...
Epoch 1/20
326034/326034 [==============================] - 46s 140us/step - loss: 0.3482 - acc: 0.8806
Epoch 2/20
…
