…
06/27/2018 08:14:32 PM __main__     INFO     Dirty samples: 62286
06/27/2018 08:14:32 PM __main__     INFO     Clean samples: 436002
06/27/2018 08:14:38 PM __main__     INFO     MMH3-hashing feature vectors...
06/27/2018 08:16:12 PM __main__     INFO     MMH3-hashed data samples: 498288
06/27/2018 08:17:37 PM __main__     INFO     Constructing model - deep
06/27/2018 08:17:39 PM __main__     INFO     Constructed model:
_________________________________________________________________
Layer (type)                 Output Shape              Param #
=================================================================
dense_1 (Dense)              (None, 128)               384128
_________________________________________________________________
batch_normalization_1 (Batch (None, 128)               512
_________________________________________________________________
activation_1 (Activation)    (None, 128)               0
_________________________________________________________________
dropout_1 (Dropout)          (None, 128)               0
_________________________________________________________________
dense_2 (Dense)              (None, 64)                8256
_________________________________________________________________
batch_normalization_2 (Batch (None, 64)                256
_________________________________________________________________
activation_2 (Activation)    (None, 64)                0
_________________________________________________________________
dropout_2 (Dropout)          (None, 64)                0
_________________________________________________________________
dense_3 (Dense)              (None, 64)                4160
_________________________________________________________________
batch_normalization_3 (Batch (None, 64)                256
_________________________________________________________________
activation_3 (Activation)    (None, 64)                0
_________________________________________________________________
dropout_3 (Dropout)          (None, 64)                0
_________________________________________________________________
dense_4 (Dense)              (None, 32)                2080
_________________________________________________________________
batch_normalization_4 (Batch (None, 32)                128
_________________________________________________________________
activation_4 (Activation)    (None, 32)                0
_________________________________________________________________
dropout_4 (Dropout)          (None, 32)                0
_________________________________________________________________
dense_5 (Dense)              (None, 1)                 33
=================================================================
Total params: 399,809
Trainable params: 399,233
Non-trainable params: 576
_________________________________________________________________
06/27/2018 08:17:39 PM __main__     INFO     Start training model...
Epoch 1/20
326034/326034 [==============================] - 43s 131us/step - loss: 0.3287 - acc: 0.8856
Epoch 2/20
…
